…
val_list: dataset/voc2012/list/val.txt
weight: None
weight_decay: 0.0001
workers: 16
world_size: 1
zoom_factor: 32
[2025-10-20 07:55:55,069 INFO test.py line 58 30680] => creating model ...
[2025-10-20 07:55:55,069 INFO test.py line 59 30680] Classes: 21
Totally 1449 samples in val set.
Starting Checking image&label pair val list...
Checking image&label pair val list done!
[2025-10-20 07:55:55,482 INFO test.py line 84 30680] PSPNet(
  (criterion): CrossEntropyLoss()
  (backbone): DINOv3ConvNextModel(
    (stages): ModuleList(
      (0): DINOv3ConvNextStage(
        (downsample_layers): ModuleList(
          (0): Conv2d(3, 96, kernel_size=(4, 4), stride=(4, 4))
          (1): DINOv3ConvNextLayerNorm((96,), eps=1e-06, elementwise_affine=True)
        )
        (layers): ModuleList(
          (0-2): 3 x DINOv3ConvNextLayer(
            (depthwise_conv): Conv2d(96, 96, kernel_size=(7, 7), stride=(1, 1), padding=(3, 3), groups=96)
            (layer_norm): DINOv3ConvNextLayerNorm((96,), eps=1e-06, elementwise_affine=True)
            (pointwise_conv1): Linear(in_features=96, out_features=384, bias=True)
            (activation_fn): GELUActivation()
            (pointwise_conv2): Linear(in_features=384, out_features=96, bias=True)
            (drop_path): Identity()
          )
        )
      )
      (1): DINOv3ConvNextStage(
        (downsample_layers): ModuleList(
          (0): DINOv3ConvNextLayerNorm((96,), eps=1e-06, elementwise_affine=True)
          (1): Conv2d(96, 192, kernel_size=(2, 2), stride=(2, 2))
        )
        (layers): ModuleList(
          (0-2): 3 x DINOv3ConvNextLayer(
            (depthwise_conv): Conv2d(192, 192, kernel_size=(7, 7), stride=(1, 1), padding=(3, 3), groups=192)
            (layer_norm): DINOv3ConvNextLayerNorm((192,), eps=1e-06, elementwise_affine=True)
            (pointwise_conv1): Linear(in_features=192, out_features=768, bias=True)
            (activation_fn): GELUActivation()
            (pointwise_conv2): Linear(in_features=768, out_features=192, bias=True)
            (drop_path): Identity()
          )
        )
      )
      (2): DINOv3ConvNextStage(
        (downsample_layers): ModuleList(
          (0): DINOv3ConvNextLayerNorm((192,), eps=1e-06, elementwise_affine=True)
          (1): Conv2d(192, 384, kernel_size=(2, 2), stride=(2, 2))
        )
        (layers): ModuleList(
          (0-8): 9 x DINOv3ConvNextLayer(
            (depthwise_conv): Conv2d(384, 384, kernel_size=(7, 7), stride=(1, 1), padding=(3, 3), groups=384)
            (layer_norm): DINOv3ConvNextLayerNorm((384,), eps=1e-06, elementwise_affine=True)
            (pointwise_conv1): Linear(in_features=384, out_features=1536, bias=True)
            (activation_fn): GELUActivation()
            (pointwise_conv2): Linear(in_features=1536, out_features=384, bias=True)
            (drop_path): Identity()
          )
        )
      )
      (3): DINOv3ConvNextStage(
        (downsample_layers): ModuleList(
          (0): DINOv3ConvNextLayerNorm((384,), eps=1e-06, elementwise_affine=True)
          (1): Conv2d(384, 768, kernel_size=(2, 2), stride=(2, 2))
        )
        (layers): ModuleList(
          (0-2): 3 x DINOv3ConvNextLayer(
            (depthwise_conv): Conv2d(768, 768, kernel_size=(7, 7), stride=(1, 1), padding=(3, 3), groups=768)
            (layer_norm): DINOv3ConvNextLayerNorm((768,), eps=1e-06, elementwise_affine=True)
            (pointwise_conv1): Linear(in_features=768, out_features=3072, bias=True)
            (activation_fn): GELUActivation()
            (pointwise_conv2): Linear(in_features=3072, out_features=768, bias=True)
            (drop_path): Identity()
          )
        )
      )
    )
    (layer_norm): LayerNorm((768,), eps=1e-06, elementwise_affine=True)
    (pool): AdaptiveAvgPool2d(output_size=1)
  )
  (ppm): PPM(
    (features): ModuleList(
      (0): Sequential(
        (0): AdaptiveAvgPool2d(output_size=1)
        (1): Conv2d(768, 192, kernel_size=(1, 1), stride=(1, 1), bias=False)
        (2): BatchNorm2d(192, eps=1e-05, momentum=0.1, affine=True, track_running_stats=True)
        (3): ReLU(inplace=True)
      )
      (1): Sequential(
        (0): AdaptiveAvgPool2d(output_size=2)
        (1): Conv2d(768, 192, kernel_size=(1, 1), stride=(1, 1), bias=False)
        (2): BatchNorm2d(192, eps=1e-05, momentum=0.1, affine=True, track_running_stats=True)
        (3): ReLU(inplace=True)
      )
      (2): Sequential(
        (0): AdaptiveAvgPool2d(output_size=3)
        (1): Conv2d(768, 192, kernel_size=(1, 1), stride=(1, 1), bias=False)
        (2): BatchNorm2d(192, eps=1e-05, momentum=0.1, affine=True, track_running_stats=True)
        (3): ReLU(inplace=True)
      )
      (3): Sequential(
        (0): AdaptiveAvgPool2d(output_size=6)
        (1): Conv2d(768, 192, kernel_size=(1, 1), stride=(1, 1), bias=False)
        (2): BatchNorm2d(192, eps=1e-05, momentum=0.1, affine=True, track_running_stats=True)
        (3): ReLU(inplace=True)
      )
    )
  )
  (cls): Sequential(
    (0): Conv2d(1536, 512, kernel_size=(3, 3), stride=(1, 1), padding=(1, 1), bias=False)
    (1): BatchNorm2d(512, eps=1e-05, momentum=0.1, affine=True, track_running_stats=True)
    (2): ReLU(inplace=True)
    (3): Dropout2d(p=0.1, inplace=False)
    (4): Conv2d(512, 21, kernel_size=(1, 1), stride=(1, 1))
  )
  (aux): Sequential(
    (0): Conv2d(384, 256, kernel_size=(3, 3), stride=(1, 1), padding=(1, 1), bias=False)
    (1): BatchNorm2d(256, eps=1e-05, momentum=0.1, affine=True, track_running_stats=True)
    (2): ReLU(inplace=True)
    (3): Dropout2d(p=0.1, inplace=False)
    (4): Conv2d(256, 21, kernel_size=(1, 1), stride=(1, 1))
  )
)
[2025-10-20 07:55:55,741 INFO test.py line 88 30680] => loading checkpoint 'exp/voc2012/pspnet50/model/train_epoch_50.pth'
[2025-10-20 07:55:56,000 INFO test.py line 91 30680] => loaded checkpoint 'exp/voc2012/pspnet50/model/train_epoch_50.pth'
[2025-10-20 07:55:56,000 INFO test.py line 159 30680] >>>>>>>>>>>>>>>> Start Evaluation >>>>>>>>>>>>>>>>
[2025-10-20 07:56:05,566 INFO test.py line 185 30680] Test: [10/1449] Data 0.014 (0.037) Batch 0.134 (0.956).
…
