…
train_h: 224
train_list: dataset/voc2012/list/train_aug.txt
train_w: 224
use_FiLM: True
use_fpn: True
val_list: dataset/voc2012/list/val.txt
weight: None
weight_decay: 0.0001
workers: 64
world_size: 1
zoom_factor: 8
[2025-10-28 08:53:30,385 INFO train.py line 115 1458] => creating model ...
[2025-10-28 08:53:30,385 INFO train.py line 116 1458] Classes: 21
[2025-10-28 08:53:30,385 INFO train.py line 117 1458] PSPNet(
  (criterion): CrossEntropyLoss()
  (backbone): DINOv3ConvNextModel(
    (stages): ModuleList(
      (0): DINOv3ConvNextStage(
        (downsample_layers): ModuleList(
          (0): Conv2d(3, 96, kernel_size=(4, 4), stride=(4, 4))
          (1): DINOv3ConvNextLayerNorm((96,), eps=1e-06, elementwise_affine=True)
        )
        (layers): ModuleList(
          (0-2): 3 x DINOv3ConvNextLayer(
            (depthwise_conv): Conv2d(96, 96, kernel_size=(7, 7), stride=(1, 1), padding=(3, 3), groups=96)
            (layer_norm): DINOv3ConvNextLayerNorm((96,), eps=1e-06, elementwise_affine=True)
            (pointwise_conv1): Linear(in_features=96, out_features=384, bias=True)
            (activation_fn): GELUActivation()
            (pointwise_conv2): Linear(in_features=384, out_features=96, bias=True)
            (drop_path): Identity()
          )
        )
      )
      (1): DINOv3ConvNextStage(
        (downsample_layers): ModuleList(
          (0): DINOv3ConvNextLayerNorm((96,), eps=1e-06, elementwise_affine=True)
          (1): Conv2d(96, 192, kernel_size=(2, 2), stride=(2, 2))
        )
        (layers): ModuleList(
          (0-2): 3 x DINOv3ConvNextLayer(
            (depthwise_conv): Conv2d(192, 192, kernel_size=(7, 7), stride=(1, 1), padding=(3, 3), groups=192)
            (layer_norm): DINOv3ConvNextLayerNorm((192,), eps=1e-06, elementwise_affine=True)
            (pointwise_conv1): Linear(in_features=192, out_features=768, bias=True)
            (activation_fn): GELUActivation()
            (pointwise_conv2): Linear(in_features=768, out_features=192, bias=True)
            (drop_path): Identity()
          )
        )
      )
      (2): DINOv3ConvNextStage(
        (downsample_layers): ModuleList(
          (0): DINOv3ConvNextLayerNorm((192,), eps=1e-06, elementwise_affine=True)
          (1): Conv2d(192, 384, kernel_size=(2, 2), stride=(2, 2))
        )
        (layers): ModuleList(
          (0-8): 9 x DINOv3ConvNextLayer(
            (depthwise_conv): Conv2d(384, 384, kernel_size=(7, 7), stride=(1, 1), padding=(3, 3), groups=384)
            (layer_norm): DINOv3ConvNextLayerNorm((384,), eps=1e-06, elementwise_affine=True)
            (pointwise_conv1): Linear(in_features=384, out_features=1536, bias=True)
            (activation_fn): GELUActivation()
            (pointwise_conv2): Linear(in_features=1536, out_features=384, bias=True)
            (drop_path): Identity()
          )
        )
      )
      (3): DINOv3ConvNextStage(
        (downsample_layers): ModuleList(
          (0): DINOv3ConvNextLayerNorm((384,), eps=1e-06, elementwise_affine=True)
          (1): Conv2d(384, 768, kernel_size=(2, 2), stride=(2, 2))
        )
        (layers): ModuleList(
          (0-2): 3 x DINOv3ConvNextLayer(
            (depthwise_conv): Conv2d(768, 768, kernel_size=(7, 7), stride=(1, 1), padding=(3, 3), groups=768)
            (layer_norm): DINOv3ConvNextLayerNorm((768,), eps=1e-06, elementwise_affine=True)
            (pointwise_conv1): Linear(in_features=768, out_features=3072, bias=True)
            (activation_fn): GELUActivation()
            (pointwise_conv2): Linear(in_features=3072, out_features=768, bias=True)
            (drop_path): Identity()
          )
        )
      )
    )
    (layer_norm): LayerNorm((768,), eps=1e-06, elementwise_affine=True)
    (pool): AdaptiveAvgPool2d(output_size=1)
  )
  (fpn): FeaturePyramidNetwork(
    (inner_blocks): ModuleList(
      (0): Conv2dNormActivation(
        (0): Conv2d(96, 1024, kernel_size=(1, 1), stride=(1, 1))
      )
      (1): Conv2dNormActivation(
        (0): Conv2d(192, 1024, kernel_size=(1, 1), stride=(1, 1))
      )
      (2): Conv2dNormActivation(
        (0): Conv2d(384, 1024, kernel_size=(1, 1), stride=(1, 1))
      )
      (3): Conv2dNormActivation(
        (0): Conv2d(768, 1024, kernel_size=(1, 1), stride=(1, 1))
      )
    )
    (layer_blocks): ModuleList(
      (0-3): 4 x Conv2dNormActivation(
        (0): Conv2d(1024, 1024, kernel_size=(3, 3), stride=(1, 1), padding=(1, 1))
      )
    )
  )
  (ppm): PPM(
    (film): FiLM(
      (net): Sequential(
        (0): Linear(in_features=768, out_features=256, bias=True)
        (1): ReLU()
        (2): Linear(in_features=256, out_features=4096, bias=True)
      )
    )
    (features): ModuleList(
      (0): Sequential(
        (0): AdaptiveAvgPool2d(output_size=1)
        (1): Conv2d(1024, 256, kernel_size=(1, 1), stride=(1, 1), bias=False)
        (2): BatchNorm2d(256, eps=1e-05, momentum=0.1, affine=True, track_running_stats=True)
        (3): ReLU(inplace=True)
      )
      (1): Sequential(
        (0): AdaptiveAvgPool2d(output_size=2)
        (1): Conv2d(1024, 256, kernel_size=(1, 1), stride=(1, 1), bias=False)
        (2): BatchNorm2d(256, eps=1e-05, momentum=0.1, affine=True, track_running_stats=True)
        (3): ReLU(inplace=True)
      )
      (2): Sequential(
        (0): AdaptiveAvgPool2d(output_size=3)
        (1): Conv2d(1024, 256, kernel_size=(1, 1), stride=(1, 1), bias=False)
        (2): BatchNorm2d(256, eps=1e-05, momentum=0.1, affine=True, track_running_stats=True)
        (3): ReLU(inplace=True)
      )
      (3): Sequential(
        (0): AdaptiveAvgPool2d(output_size=6)
        (1): Conv2d(1024, 256, kernel_size=(1, 1), stride=(1, 1), bias=False)
        (2): BatchNorm2d(256, eps=1e-05, momentum=0.1, affine=True, track_running_stats=True)
        (3): ReLU(inplace=True)
      )
    )
  )
  (cls): Sequential(
    (0): Conv2d(2048, 512, kernel_size=(3, 3), stride=(1, 1), padding=(1, 1), bias=False)
    (1): BatchNorm2d(512, eps=1e-05, momentum=0.1, affine=True, track_running_stats=True)
    (2): ReLU(inplace=True)
    (3): Dropout2d(p=0.1, inplace=False)
    (4): Conv2d(512, 21, kernel_size=(1, 1), stride=(1, 1))
  )
)
Totally 10582 samples in train set.
Starting Checking image&label pair train list...
Checking image&label pair train list done!
Totally 1449 samples in val set.
Starting Checking image&label pair val list...
Checking image&label pair val list done!
[2025-10-28 08:54:09,113 INFO train.py line 266 1458] Epoch: [1/50][10/330] Data 0.001 (2.799) Batch 0.282 (3.801) Remain 17:24:41 MainLoss 1.1860 Loss 1.1860 Accuracy 0.7025.
…
