…
test_list: dataset/voc2012/list/val.txt
test_w: 224
train_gpu: [0]
train_h: 224
train_list: dataset/voc2012/list/train.txt
train_w: 224
val_list: dataset/voc2012/list/val.txt
weight: None
weight_decay: 0.0001
workers: 16
world_size: 1
zoom_factor: 32
[2025-10-20 07:51:56,709 INFO train.py line 124 26138] => creating model ...
[2025-10-20 07:51:56,709 INFO train.py line 125 26138] Classes: 21
[2025-10-20 07:51:56,709 INFO train.py line 126 26138] PSPNet(
  (criterion): CrossEntropyLoss()
  (backbone): DINOv3ConvNextModel(
    (stages): ModuleList(
      (0): DINOv3ConvNextStage(
        (downsample_layers): ModuleList(
          (0): Conv2d(3, 96, kernel_size=(4, 4), stride=(4, 4))
          (1): DINOv3ConvNextLayerNorm((96,), eps=1e-06, elementwise_affine=True)
        )
        (layers): ModuleList(
          (0-2): 3 x DINOv3ConvNextLayer(
            (depthwise_conv): Conv2d(96, 96, kernel_size=(7, 7), stride=(1, 1), padding=(3, 3), groups=96)
            (layer_norm): DINOv3ConvNextLayerNorm((96,), eps=1e-06, elementwise_affine=True)
            (pointwise_conv1): Linear(in_features=96, out_features=384, bias=True)
            (activation_fn): GELUActivation()
            (pointwise_conv2): Linear(in_features=384, out_features=96, bias=True)
            (drop_path): Identity()
          )
        )
      )
      (1): DINOv3ConvNextStage(
        (downsample_layers): ModuleList(
          (0): DINOv3ConvNextLayerNorm((96,), eps=1e-06, elementwise_affine=True)
          (1): Conv2d(96, 192, kernel_size=(2, 2), stride=(2, 2))
        )
        (layers): ModuleList(
          (0-2): 3 x DINOv3ConvNextLayer(
            (depthwise_conv): Conv2d(192, 192, kernel_size=(7, 7), stride=(1, 1), padding=(3, 3), groups=192)
            (layer_norm): DINOv3ConvNextLayerNorm((192,), eps=1e-06, elementwise_affine=True)
            (pointwise_conv1): Linear(in_features=192, out_features=768, bias=True)
            (activation_fn): GELUActivation()
            (pointwise_conv2): Linear(in_features=768, out_features=192, bias=True)
            (drop_path): Identity()
          )
        )
      )
      (2): DINOv3ConvNextStage(
        (downsample_layers): ModuleList(
          (0): DINOv3ConvNextLayerNorm((192,), eps=1e-06, elementwise_affine=True)
          (1): Conv2d(192, 384, kernel_size=(2, 2), stride=(2, 2))
        )
        (layers): ModuleList(
          (0-8): 9 x DINOv3ConvNextLayer(
            (depthwise_conv): Conv2d(384, 384, kernel_size=(7, 7), stride=(1, 1), padding=(3, 3), groups=384)
            (layer_norm): DINOv3ConvNextLayerNorm((384,), eps=1e-06, elementwise_affine=True)
            (pointwise_conv1): Linear(in_features=384, out_features=1536, bias=True)
            (activation_fn): GELUActivation()
            (pointwise_conv2): Linear(in_features=1536, out_features=384, bias=True)
            (drop_path): Identity()
          )
        )
      )
      (3): DINOv3ConvNextStage(
        (downsample_layers): ModuleList(
          (0): DINOv3ConvNextLayerNorm((384,), eps=1e-06, elementwise_affine=True)
          (1): Conv2d(384, 768, kernel_size=(2, 2), stride=(2, 2))
        )
        (layers): ModuleList(
          (0-2): 3 x DINOv3ConvNextLayer(
            (depthwise_conv): Conv2d(768, 768, kernel_size=(7, 7), stride=(1, 1), padding=(3, 3), groups=768)
            (layer_norm): DINOv3ConvNextLayerNorm((768,), eps=1e-06, elementwise_affine=True)
            (pointwise_conv1): Linear(in_features=768, out_features=3072, bias=True)
            (activation_fn): GELUActivation()
            (pointwise_conv2): Linear(in_features=3072, out_features=768, bias=True)
            (drop_path): Identity()
          )
        )
      )
    )
    (layer_norm): LayerNorm((768,), eps=1e-06, elementwise_affine=True)
    (pool): AdaptiveAvgPool2d(output_size=1)
  )
  (ppm): PPM(
    (features): ModuleList(
      (0): Sequential(
        (0): AdaptiveAvgPool2d(output_size=1)
        (1): Conv2d(768, 192, kernel_size=(1, 1), stride=(1, 1), bias=False)
        (2): BatchNorm2d(192, eps=1e-05, momentum=0.1, affine=True, track_running_stats=True)
        (3): ReLU(inplace=True)
      )
      (1): Sequential(
        (0): AdaptiveAvgPool2d(output_size=2)
        (1): Conv2d(768, 192, kernel_size=(1, 1), stride=(1, 1), bias=False)
        (2): BatchNorm2d(192, eps=1e-05, momentum=0.1, affine=True, track_running_stats=True)
        (3): ReLU(inplace=True)
      )
      (2): Sequential(
        (0): AdaptiveAvgPool2d(output_size=3)
        (1): Conv2d(768, 192, kernel_size=(1, 1), stride=(1, 1), bias=False)
        (2): BatchNorm2d(192, eps=1e-05, momentum=0.1, affine=True, track_running_stats=True)
        (3): ReLU(inplace=True)
      )
      (3): Sequential(
        (0): AdaptiveAvgPool2d(output_size=6)
        (1): Conv2d(768, 192, kernel_size=(1, 1), stride=(1, 1), bias=False)
        (2): BatchNorm2d(192, eps=1e-05, momentum=0.1, affine=True, track_running_stats=True)
        (3): ReLU(inplace=True)
      )
    )
  )
  (cls): Sequential(
    (0): Conv2d(1536, 512, kernel_size=(3, 3), stride=(1, 1), padding=(1, 1), bias=False)
    (1): BatchNorm2d(512, eps=1e-05, momentum=0.1, affine=True, track_running_stats=True)
    (2): ReLU(inplace=True)
    (3): Dropout2d(p=0.1, inplace=False)
    (4): Conv2d(512, 21, kernel_size=(1, 1), stride=(1, 1))
  )
  (aux): Sequential(
    (0): Conv2d(384, 256, kernel_size=(3, 3), stride=(1, 1), padding=(1, 1), bias=False)
    (1): BatchNorm2d(256, eps=1e-05, momentum=0.1, affine=True, track_running_stats=True)
    (2): ReLU(inplace=True)
    (3): Dropout2d(p=0.1, inplace=False)
    (4): Conv2d(256, 21, kernel_size=(1, 1), stride=(1, 1))
  )
)
Totally 1464 samples in train set.
Starting Checking image&label pair train list...
Checking image&label pair train list done!
[2025-10-20 07:52:01,002 INFO train.py line 282 26138] Epoch: [1/50][10/91] Data 0.001 (0.099) Batch 0.038 (0.403) Remain 00:30:27 MainLoss 2.3301 AuxLoss 1.9509 Loss 3.1105 Accuracy 0.6995.
[2025-10-20 07:52:01,369 INFO train.py line 282 26138] Epoch: [1/50][20/91] Data 0.001 (0.050) Batch 0.036 (0.220) Remain 00:16:34 MainLoss 2.1414 AuxLoss 1.7377 Loss 2.8365 Accuracy 0.5472.
…
